model/keypoint.tflite (tflite, 6588 bytes, 6 tensors)

sequential/dense/BiasAdd/ReadVariableOp f4 [20]
0.107107006 -0.47648278 -0.32136223 -0.36059654 -0.5001141 -0.2102959 -0.06828884 -0.298775
-0.4709965 -0.36129454 -0.39010316 -0.27446815 -0.3045094 -0.123460144 -0.40044063 -0.12323848
-0.26061586 -0.41599277 -0.29647243 -0.26369143
00000000: eb5a db3d 8df5 f3be 9789 a4be 1ca0 b8be
00000010: 7a07 00bf cf57 57be 05db 8bbd 09f9 98be
00000020: 7426 f1be 99fb b8be 9abb c7be 1787 8cbe
00000030: a8e8 9bbe acd8 fcbd 8e06 cdbe 7564 fcbd
00000040: 716f 85be 01fd d4be 3ccb 97be 9002 87be

sequential/dense_2/BiasAdd/ReadVariableOp f4 [5]
0.18579316 0.19406898 -0.2193193 -0.27203256 -0.2614409
00000000: 9040 3e3e 05ba 463e 3d95 60be da47 8bbe
00000010: 95db 85be

sequential/dense_1/BiasAdd/ReadVariableOp f4 [10]
0.30970237 -0.29989016 0.9869461 0.19175711 0.47913396 0.1800234 0.086880974 0.49110416
0.535354 0.2804073
00000000: 4f91 9e3e 348b 99be 80a8 7c3f fa5b 443e
00000010: 0c51 f53e 0e58 383e a7ee b13d 0172 fb3e
00000020: f60c 093f 8c91 8f3e

sequential/dense/MatMul f4 [20, 42]
-0.16839854 -0.012941301 -0.47573882 -0.46303913 -0.63108283 -0.15133783 -0.5132533 -0.40309647
-0.016034542 -0.110970445 -0.43704015 -0.28455085 -0.4436712 -0.30755115 -0.029911468 -0.0063108667
0.34994325 0.10480669 -0.21231556 -0.30021968 -0.35248098 -0.21413006 0.30191034 0.015265108
0.3292736 0.24787553 -0.35669976 -0.26545158 -0.4321259 -0.2797454 0.11378591 0.00816649
0.28715682 0.25382167 -0.15013872 -0.19264649 -0.4657548 -0.3296933 0.021095263 -0.10017856
0.06796283 0.15000388 -0.2594019 0.28389096 -0.10093262 0.11693839 -0.15009183 -0.2741308
-0.022169665 -0.17316183 0.042910315 -0.22303346 -0.24691792 -0.27861795 -0.04833665 0.06924498
0.13780813 0.13589948 0.14148726 0.1352323 -0.69421375 -0.10013223 -0.098334596 -0.0029910526
0.14127634 0.120460354 0.18665627 0.103501245 -0.6236677 -0.14175144 0.044317152 -0.05817594
0.20749146 0.13152443 0.1512017 0.124507084 -0.377145 -0.64683443 -0.16408287 -0.31540522
0.12128985 0.07039943 0.098335855 0.04998234 0.14814281 0.24857873 -0.06731417 -0.0063624233
-0.046506952 -0.006517853 -0.16304015 0.0065816515 -0.32255027 0.026145866 0.08437197 0.102814645
-0.019414784 0.0048239217 -0.07643128 0.0006840689 -0.024259053 0.09009765 0.06227629 0.08124708
0.048497822 0.044421747 0.07442346 -0.0865477 0.34214914 -0.2937988 -0.11740067 0.11028285
0.053084332 -0.03967076 0.23347579 -0.08857299 0.22279528 0.42234164 -0.29489505 0.15771705
-0.1536826 0.080990724 0.2283904 0.13035668 0.53991044 -0.40643597 0.30652064 0.19625837
0.075391926 -0.011821346 -0.061444934 0.07319057 -0.13228993 -0.24497943 -0.082919486 -0.42016718
-0.15735592 0.12760533 -0.056715615 -0.1274371 -0.052793846 0.0333109 -0.13177112 0.15493968
-0.0982944 0.16098778 0.003090219 -0.04062462 0.21728563 0.10985588 0.34841388 0.3348219
-0.114637606 0.03913333 -0.0535594 -0.2317953 -0.015985092 0.30419862 0.015877442 0.68755126
0.025395188 -0.04505997 0.026069611 -0.0440231 0.12289285 0.3259897 -0.12875137 0.6507041
-0.23265344 0.2836042 0.23584537 -0.46110985 0.10879511 -0.4367706 0.2845356 -0.122287914
-0.08710618 -0.098608084 0.5065465 -0.1187136 0.3139962 -0.17593029 -0.21110164 0.07396102
-0.29185084 0.12730713 0.54485387 -0.07902576 0.19563524 0.00045386754 -0.28697464 0.11930843
-0.20663351 0.08512047 0.38876316 -0.18604141 0.023656003 0.122603245 -0.1788986 0.09278742
-0.23311444 0.11515869 0.46439707 -0.64307344 0.2610272 -0.23464184 0.117036745 0.09452476
-0.006516688 0.04382148 -0.19687259 -0.2815249 0.6216242 -0.39373615 0.54548633 -0.23479114
0.27839947 -0.30255434 -0.018903714 0.0017304792 0.3109127 0.13680124 0.3379994 0.29559258
-0.28902993 0.068609186 -0.299412 -0.038667582 0.34119657 0.08245952 0.30641332 0.0903954
-0.0637192 0.0032756664 -0.52715683 0.09855441 0.449759 -0.2549618 0.26739717 0.081257336
-0.0031731452 -0.033438276 -0.14878495 0.10329763 -0.031708322 -0.05323491 0.33847106 -0.13079806
0.09579518 0.04227578 0.0034786675 -0.07813855 -0.21740529 -0.010799825 0.7272005 -0.2981189
00000000: ab70 2cbe c007 54bc 0a94 f3be 7713 edbe
00000010: a58e 21bf 4ef8 1abe 9164 03bf a962 cebe
00000020: df5a 83bc 7944 e3bd bac3 dfbe a6b0 91be
00000030: df28 e3be 5877 9dbe e508 f5bc 63cb cebb
00000040: c32b b33e e4a4 d63d 4069 59be 65b6 99be
00000050: 6378 b4be e944 5bbe fe93 9a3e 811a 7a3c
00000060: 8d96 a83e 15d3 7d3e 5aa1 b6be 45e9 87be
00000070: 9b3f ddbe ca3a 8fbe 9608 e93d becc 053c
00000080: 3806 933e eaf4 813e f7bd 19be 1f45 45be
00000090: 6a77 eebe 8fcd a8be f9cf ac3c 6b2a cdbd
000000a0: 1930 8b3d 9e9a 193e 53d0 84be 285a 913e
000000b0: c3b5 cebd 657d ef3d acb1 19be df5a 8cbe
000000c0: 289d b5bc 5651 31be bac2 2f3d e262 64be
000000d0: 0dd8 7cbe 03a7 8ebe a7fc 45bd 50d0 8d3d
000000e0: 931d 0d3e 3c29 0b3e 09e2 103e 567a 0a3e
000000f0: feb7 31bf 2012 cdbd a663 c9bd 8905 44bb
00000100: bfaa 103e ebb3 f63d d222 3f3e 76f8 d33d
00000110: b0a8 1fbf 4a27 11be e785 353d e549 6ebd
00000120: a478 543e 57ae 063e 9ed4 1a3e 92fd fe3d
00000130: 2619 c1be f196 25bf 5705 28be cb7c a1be
00000140: d066 f83d 942d 903d 4f64 c93d 48ba 4c3d
00000150: c0b2 173e 6c8b 7e3e 03dc 89bd e07b d0bb
00000160: 137e 3ebd b793 d5bb fff3 26be e5aa d73b
00000170: 4f25 a5be db2f d63c 36cb ac3d 7c90 d23d
00000180: c10b 9fbc fd11 9e3b 0188 9cbd 1653 333a
00000190: ecba c6bc 1e85 b83d 6c15 7f3d de64 a63d
000001a0: a7a5 463d 94f3 353d 546b 983d ec3f b1bd
000001b0: 2c2e af3e cc6c 96be c36f f0bd fadb e13d
000001c0: f56e 593d cf7d 22bd 4714 6f3e c165 b5bd
000001d0: 7224 643e 2a3d d83e 7cfc 96be 9480 213e
000001e0: f95e 1dbe 77de a53d 2cdf 693e 397c 053e
000001f0: 9237 0a3f 6018 d0be 46f0 9c3e f4f7 483e
00000200: 1567 9a3d 52ae 41bc afad 7bbd f0e4 953d
00000210: 0377 07be e3db 7abe b1d1 a9bd 2720 d7be
00000220: e921 21be f9aa 023e a24e 68bd df7e 02be
00000230: 5c3e 58bd 0371 083d 02ef 06be 82a8 1e3e
00000240: 934e c9bd fbd9 243e 4685 4a3b 0066 26bd
00000250: 2080 5e3e 1ffc e03d 4e63 b23e c76d ab3e
00000260: 1fc7 eabd 454a 203d 1a61 5bbd bf5b 6dbe
00000270: 2bf3 82bc ecbf 9b3e 6911 823c 5c03 303f
00000280: 9209 d03c ce90 38bd f08f d53c 9151 34bd
00000290: 3faf fb3d 1fe8 a63e 66d7 03be 8b94 263f
000002a0: b43c 6ebe 9234 913e 7381 713e 9716 ecbe
000002b0: f8cf de3d 65a0 dfbe a6ae 913e 1672 fabd
000002c0: ba64 b2bd 09f3 c9bd 08ad 013f 1e20 f3bd
000002d0: 1cc4 a03e 1227 34be 072b 58be e078 973d
000002e0: 796d 95be cd5c 023e 8b7b 0b3f 42d8 a1bd
000002f0: 9b54 483e 12f5 ed39 57ee 92be fa57 f43d
00000300: bc97 53be a453 ae3d f70b c73e a481 3ebe
00000310: 3cca c13c 6917 fb3d 3231 37be 5507 be3d
00000320: 8db5 6ebe 52d8 eb3d 74c5 ed3e 76a0 24bf
00000330: 5ba5 853e f345 70be f6b0 ef3d 3396 c13d
00000340: f189 d5bb 277e 333d f898 49be 0824 90be
00000350: c322 1f3f c997 c9be fea4 0b3f 176d 70be
00000360: 608a 8e3e 67e8 9abe f6db 9abc 3fd1 e23a
00000370: f32f 9f3e a015 0c3e 420e ad3e e957 973e
00000380: bbfb 93be f982 8c3d 884c 99be e661 1ebd
00000390: 51b1 ae3e 89e0 a83d 35e2 9c3e 3921 b93d
000003a0: 367f 82bd 90ac 563b c0f3 06bf e5d6 c93d
000003b0: d046 e63e 5a8a 82be 48e8 883e 3f6a a63d
000003c0: 8bf4 4fbb 93f6 08bd 155b 18be b58d d33d
000003d0: 96e0 01bd d90c 5abd 144c ad3e edef 05be
000003e0: 4330 c43d 5e29 2d3d 5bfa 633b 1b07 a0bd
000003f0: 7e9f 5ebe c0f1 30bc d029 3a3f 0aa3 98be

sequential/dense_1/MatMul f4 [10, 20]
0.42382076 0.19188626 -0.6330629 -0.4436206 0.3298113 0.5555326 0.3300498 -0.2788981
0.83072627 -0.38398233 -0.5325835 -0.18417743 0.61287194 0.39457732 0.4105025 -0.027308693
0.04008582 -0.12584226 -0.052977603 -0.14473936 0.41917768 0.21555643 -0.021396672 0.100454636
0.104799844 0.024805633 0.0189954 0.053970642 0.49345437 -0.29640236 -0.3722978 -0.17772833
-0.026870508 -0.087242186 -0.15973842 -0.17719357 -0.12715279 -0.31418264 -0.1567817 -0.3579542
-0.63026375 1.0164987 -0.3292498 -0.32455513 0.8066598 0.4431222 0.26841798 -0.01642165
0.6960042 -0.13701653 -0.11764389 -0.46085578 0.39951584 -0.10563171 0.30929953 -0.060697366
-0.16116141 -0.038721815 -0.013101245 -0.010786114 0.0024115082 -0.021461058 0.4014253 0.1681495
-0.016462501 0.033233326 0.016049128 -0.84893405 -0.16320206 0.41379005 0.50852954 -0.15833336
-0.043503445 0.34496942 -0.017733483 -0.56570566 0.37160704 0.22819476 0.43519318 0.3955057
0.51393497 0.6396106 -0.41984144 -0.06207859 0.33536923 0.14159611 0.69167364 0.038913194
0.6698102 0.08664216 0.2926214 0.4689789 0.17831214 0.34402615 0.78648466 0.04642455
0.27975565 -0.19902527 0.20415051 0.46642086 0.11967721 -0.20824496 0.27028236 0.62944674
-0.1832786 0.20396453 0.20825683 0.4515466 -0.07084201 0.052924573 0.23015596 0.67371887
-0.13089047 0.43522182 -0.03714346 0.35401616 0.40760475 0.43648276 -0.26700208 0.3220721
-0.019962579 -0.29254186 -0.55157006 -0.20461938 -0.019661177 0.012596226 0.032187592 -0.44328237
-0.119117625 0.49077028 0.65114516 0.0869464 0.011052424 0.25576875 -0.03411355 -0.39010027
0.36636332 -0.38586834 0.3253794 -0.50096226 0.43885142 0.2405615 0.2731487 0.10176692
0.107330285 -0.1798552 -0.115682974 0.3858651 -0.20990007 0.7591765 0.35442975 -0.027341262
0.41909716 0.65262777 0.5351205 0.09457053 0.38128462 0.3441779 0.69615215 0.6899064
0.38580942 -0.106814146 0.40791535 0.5242792 0.088669 0.5065373 0.23216243 0.78306884
-0.4397422 0.16476196 0.19320329 0.82960296 0.24613145 0.31297317 -0.088204205 0.673488
-0.040534284 0.6083183 0.5860922 0.12590116 0.0353176 0.9101218 -0.22849904 -0.114742324
0.5840221 -0.19905135 -0.2484599 -0.048003055 -0.03265431 -0.17057818 -0.041169472 -0.0021382112
-0.3062657 -0.007497786 -0.5029395 -0.122052625 -0.011728936 -0.2764946 -0.041434243 -0.22098671
00000000: 09ff d83e d57d 443e 6910 22bf 3d22 e3be
00000010: 07dd a83e 6237 0e3f 4afc a83e bbcb 8ebe
00000020: 7aaa 543f 5599 c4be 6457 08bf 0299 3cbe
00000030: 2de5 1c3f 0a06 ca3e 622d d23e 7bb6 dfbc
00000040: 0731 243d cbdc 00be 0bff 58bd 8e36 14be
00000050: 759e d63e d3ba 5c3e 1348 afbc 29bb cd3d
00000060: 4da1 d63d 2f35 cb3c 3e9c 9b3c 5210 5d3d
00000070: 0da6 fc3e 0dc2 97be d19d bebe 6afe 35be
00000080: 8a1f dcbc 08ac b2bd 7892 23be 3b72 35be
00000090: 5734 02be 8cdc a0be 628b 20be c645 b7be
000000a0: f758 21bf a11c 823f 6e93 a8be 172c a6be
000000b0: 4281 4e3f eae0 e23e 156e 893e b286 86bc
000000c0: 552d 323f 104e 0cbe 48ef f0bd 4af5 ebbe
000000d0: 578d cc3e 7055 d8bd 825c 9e3e cd9d 78bd
000000e0: 7f07 25be c49a 1ebd 9ba6 56bc 3eb8 30bc
000000f0: 650a 1e3b 1acf afbc 9e87 cd3e 622f 2c3e
00000100: 5edc 86bc ab1f 083d 7679 833c be53 59bf
00000110: 711e 27be 4adc d33e fe2e 023f 2422 22be
00000120: ab30 32bd d59f b03e cf45 91bc 16d2 10bf
00000130: 4743 be3e e3ab 693e a4d1 de3e b97f ca3e
00000140: 3e91 033f 85bd 233f 75f5 d6be 1f46 7ebd
00000150: 84b5 ab3e 92fe 103e 8611 313f 7163 1f3d
00000160: ae78 2b3f 7271 b13d 79d2 953e 011e f03e
00000170: 7597 363e 3224 b03e 0f57 493f ab27 3e3d
00000180: 223c 8f3e 48cd 4bbe d50c 513e b7ce ee3e
00000190: 5319 f53d 2b3e 55be 7362 8a3e 6c23 213f
000001a0: 63ad 3bbe 14dc 503e 4741 553e 1e31 e73e
000001b0: 9e15 91bd 70c7 583d 01ae 6b3e d778 2c3f
000001c0: 2708 06be 65d5 de3e be23 18bd 9b41 b53e
000001d0: 92b1 d03e ab7a df3e 7fb4 88be a2e6 a43e
000001e0: 9088 a3bc 0cc8 95be b233 0dbf be87 51be
000001f0: 7a10 a1bc 6760 4e3c 23d7 033d e8f5 e2be
00000200: f1f3 f3bd 3e46 fb3e 73b1 263f f410 b23d
00000210: 3a15 353c 1ff4 823e a6ba 0bbd 39bb c7be
00000220: f993 bb3e 8990 c5be 2198 a63e 103f 00bf
00000230: 22b1 e03e c155 763e 25da 8b3e 2d6b d03d
00000240: fbcf db3d f62b 38be 32eb ecbd 1c90 c53e
00000250: 0bf0 56be 6459 423f d177 b53e c8fa dfbc
00000260: e793 d63e 9d12 273f a8fd 083f 32ae c13d
00000270: bd37 c33e 1638 b03e 0737 323f b59d 303f
00000280: d088 c53e 60c1 dabd 48da d03e 2937 063f
00000290: 1898 b53d 6eac 013f fdbb 6d3e 3377 483f
000002a0: e425 e1be 5cb7 283e 15d7 453e dc60 543f
000002b0: e209 7c3e 053e a03e 68a4 b4bd b669 2c3f
000002c0: 4707 26bd c0ba 1b3f 230a 163f 3cec 003e
000002d0: 30a9 103d befd 683f a7fb 69be 06fe eabd
000002e0: 7982 153f 1ed4 4bbe 466c 7ebe da9e 44bd
000002f0: 87c0 05bd 0cac 2ebe 52a1 28bd 3b21 0cbb
00000300: dcce 9cbe fdaf f5bb a5c0 00bf baf6 f9bd
00000310: b92a 40bc b390 8dbe f4b6 29bd 574a 62be

sequential/dense_2/MatMul f4 [5, 10]
-0.33971494 -0.7024818 0.008243125 1.0051783 0.16146833 0.8028417 0.54151213 0.71191186
0.6941369 -0.8556315 1.0643089 0.2376049 0.8375158 -0.72143525 0.5159979 -0.35821238
-0.74124086 0.33705488 0.15138678 0.59563154 -0.13139951 0.40255445 -1.3147463 -0.06367266
-1.0117122 -0.7310214 -0.8067786 0.020124298 -0.8404119 -0.10759387 -0.0074216016 -0.109790996
-0.65339005 0.32982183 -0.27815184 0.22036466 -0.6815179 -0.6454091 -0.9703984 -0.7614924
-0.3931781 0.16593249 -1.1673043 -0.5434504 -0.45132828 -0.5448841 0.28166956 -0.5588341
-0.35899907 -0.20737408
00000000: 1eef adbe d9d5 33bf 2c0e 073c afa9 803f
00000010: f457 253e 0987 4d3f 8aa0 0a3f db3f 363f
00000020: f5b2 313f aa0a 5bbf 463b 883f b34e 733e
00000030: 6f67 563f fbaf 38bf 7018 043f 9d67 b7be
00000040: f6c1 3dbf 7592 ac3e 2305 1b3e 4f7b 183f
00000050: 988d 06be 9e1b ce3e 9b49 a8bf d066 82bd
00000060: c97f 81bf 3824 3bbf 0b89 4ebf b6db a43c
00000070: 3c25 57bf 2d5a dcbd e830 f3bb 1ada e0bd
00000080: 9244 27bf 68de a83e eb69 8ebe 46a7 613e
00000090: f577 2ebf 8839 25bf 086c 78bf 2af1 42bf
000000a0: a44e c9be 35ea 293e 3a6a 95bf 911f 0bbf
000000b0: 8014 e7be 867d 0bbf fe36 903e c00f 0fbf
000000c0: bace b7be df59 54be
